state_dict_model.pt (torch, 395675 bytes, 12 tensors)

gc1.weight0 f4 [1433, 10]
0.13340813 0.11597833 0.37058592 0.6017822 -0.6073808 -0.28503093 -0.36057416 0.04542428
0.48339233 -0.34639123 0.770045 -0.2770438 0.20780784 0.2074192 -0.7179393 -0.6997166
-0.66056156 0.7386004 0.465431 0.74157387 -0.22023924 0.021829449 0.3963655 0.62629193
-0.7483407 0.09820548 -0.46623906 0.04996424 0.50308853 -0.31606483 -0.43159106 0.28605077
-0.21745397 0.20892234 -0.63949144 0.117122225 -0.19889213 -0.11540256 -0.0728379 -0.5682498
0.88024944 -0.9475069 -0.09594786 -0.8037242 0.806956 0.05225251 -0.8071238 -0.4035125
0.8571793 0.51778716 -0.711962 0.71653533 -0.6337096 0.38274282 0.14759842 -0.0017453466
0.5350212 0.39712045 0.31904984 0.18686248 -0.6780363 0.4789665 0.094462276 0.5099049
-0.34961542 0.4823438 -0.23454748 -0.29544714 0.007130464 -0.5401384 0.30961454 0.19578975
0.5019868 0.7197945 -0.74511933 -0.58782035 -0.646832 0.738185 0.817812 0.849844
-0.10184131 -0.15345515 -0.09678107 -0.21092747 -0.17260145 0.38090926 -0.62224835 -0.041305214
0.29147822 0.1777688 0.12987053 0.11934255 0.58117956 0.6431043 -0.54151696 -0.42623642
-0.3145663 0.48206028 0.51432246 0.14861076 -0.2676097 0.07475795 0.35345873 0.50026095
-0.34515476 -0.4433294 -0.37369257 -0.16499549 0.40180185 -0.22967778 0.47751155 -0.11080721
0.6709591 0.03695549 -0.36852026 -0.65508455 -0.2523828 -0.40038922 0.38914582 -0.49156067
0.25100166 -0.3563925 0.24241741 -0.4525082 0.24717197 0.37979123 -0.6248826 -0.622755
0.43858287 -0.0044962987 -0.22835383 0.16233945 -0.065254346 0.8725684 -0.69381267 -0.22315906
-0.570131 0.15103368 0.5519945 0.6375556 0.5203724 -0.5942014 0.26399347 -0.16103527
-0.21969467 0.2162587 -0.4370234 0.2939535 0.5757507 0.4248815 0.2870526 -0.5720993
-0.08281136 -0.4050016 0.73979706 -0.35071853 -0.30748615 -0.5406654 -0.25330278 -0.3067589
0.35920948 -0.28027812 0.3864487 -0.08324268 0.67961025 -0.43982974 0.42962888 -0.31250072
-0.11466805 -0.3033655 -0.18392323 0.53970414 -0.20145097 -0.29074916 -0.4663515 -0.220724
0.49609903 0.48751727 -0.1820948 -0.70787376 -0.028572472 0.44615442 0.14400166 -0.542707
0.10482355 -0.24953271 0.22256745 0.30133218 0.0370858 -0.5761717 -0.59886 0.6967894
-0.011410017 0.85715693 0.42399934 -0.3033003 0.6776697 -0.55056435 0.57561386 -0.20950224
-0.058566745 -0.023796508 0.054302685 0.025119511 -0.0032072072 -0.03887692 -0.039450772 -0.057761364
-0.0210189 0.02177604 -0.2667782 -0.48476574 -0.4346902 0.266178 -0.4399727 0.3941991
-0.6176933 -0.3705047 -0.18759954 -0.10389148 0.17847407 -0.20578445 -0.4139229 -0.3508309
0.3712548 0.49423802 -0.31592026 -0.10020257 0.44882807 0.33346924 -0.5537995 0.6033957
-0.08912909 0.46661305 0.5032915 0.3574006 0.46514544 -0.11875227 0.2698654 -0.35282028
0.21787511 0.11871874 -0.5638007 -0.5072842 -0.30913776 -0.3781442 -0.2398226 0.18772909
-0.2896757 -0.26538536 -0.6634389 0.112924114 -0.585373 -0.4710359 0.12608516 0.457091
00000000: 249c 083e 0c86 ed3d 70bd bd3e 660e 1a3f
00000010: 4f7d 1bbf 93ef 91be 2d9d b8be cf0e 3a3d
00000020: 337f f73e 315a b1be ab21 453f afd8 8dbe
00000030: 94cb 543e b365 543e dfca 37bf a120 33bf
00000040: 901a 29bf ea14 3d3f f94c ee3e c9d7 3d3f
00000050: 6586 61be acd3 b23c 6bf0 ca3e ab54 203f
00000060: 4293 3fbf f41f c93d e3b6 eebe 4ea7 4c3d
00000070: 69ca 003f 40d3 a1be 81f9 dcbe 3f75 923e
00000080: 41ac 5ebe bdef 553e b6b5 23bf c7dd ef3d
00000090: 61aa 4bbe 2d58 ecbd 092c 95bd d278 11bf
000000a0: 0758 613f d08f 72bf 5080 c4bd dfc0 4dbf
000000b0: ab94 4e3f ba06 563d aa9f 4ebf 3199 cebe
000000c0: 1a70 5b3f b38d 043f 2443 36bf dc6e 373f
000000d0: cb3a 22bf def6 c33e 0a24 173e 1dc4 e4ba
000000e0: 26f7 083f 5f53 cb3e 805a a33e e158 3f3e
000000f0: c993 2dbf 193b f53e 7075 c13d 2189 023f
00000100: cb00 b3be c4f5 f63e 372d 70be d944 97be
00000110: aba6 e93b 8346 0abf cc85 9e3e 1c7d 483e
00000120: 3582 003f 7444 383f 24c0 3ebf 657b 16bf
00000130: c896 25bf b1f9 3c3f 215c 513f 608f 593f
00000140: 2d92 d0bd 5923 1dbe 2735 c6bd 5ffd 57be
00000150: 6fbe 30be 8a06 c33e ab4b 1fbf a82f 29bd
00000160: a23c 953e 0609 363e c8fc 043e de69 f43d
00000170: 2fc8 143f 7ca2 243f dba0 0abf a93b dabe
00000180: d60e a1be 9bd0 f63e a3aa 033f 6b2d 183e
00000190: 2304 89be b21a 993d 8bf8 b43e 1a11 003f
000001a0: 20b8 b0be 12fc e2be a254 bfbe 94f4 28be
000001b0: f9b8 cd3e a730 6bbe 657c f43e e4ee e2bd
000001c0: fac3 2b3f a45e 173d b0ae bcbe 9fb3 27bf
000001d0: 5238 81be d1ff ccbe 1f3e c73e d7ad fbbe
000001e0: 4a83 803e 1479 b6be 453c 783e 28af e7be
000001f0: a61a 7d3e ff73 c23e 4ef8 1fbf df6c 1fbf
00000200: ef8d e03e b055 93bb 96d5 69be 503c 263e
00000210: 12a4 85bd a560 5f3f b59d 31bf cf83 64be
00000220: 1bf4 11bf 93a8 1a3e 834f 0d3f d836 233f
00000230: 2037 053f 951d 18bf 272a 873e 6ee6 24be
00000240: a4f7 60be ec72 5d3e 88c1 dfbe 1381 963e
00000250: 6664 133f 118a d93e 8ff8 923e 1a75 12bf
00000260: 0199 a9bd 5f5c cfbe 5763 3d3f 6191 b3be
00000270: d36e 9dbe 0c69 0abf e7b0 81be 810f 9dbe
00000280: 4eea b73e 9d80 8fbe 9bdc c53e 237b aabd
00000290: f0fa 2d3f 5d31 e1be 51f8 db3e 1800 a0be
000002a0: 15d7 eabd b952 9bbe 5f56 3cbe 0d2a 0a3f
000002b0: 2a49 4ebe 13dd 94be a0c5 eebe 7905 62be
000002c0: b100 fe3e dd9b f93e 0f77 3abe 3737 35bf
000002d0: d110 eabc 5a6e e43e 2c75 133e d9ee 0abf
000002e0: bbad d63d 8185 7fbe b9e8 633e 3648 9a3e
000002f0: 48e7 173d fd7f 13bf e44e 19bf ca60 323f
00000300: 14f1 3abc a36e 5b3f 7116 d93e 2d4a 9bbe
00000310: c37b 2d3f c9f1 0cbf 6e5b 133f c187 56be
00000320: afe3 6fbd e5f0 c2bc 7e6c 5e3d 6fc7 cd3c
00000330: 0230 52bb 683d 1fbd 2297 21bd 2e97 6cbd
00000340: d42f acbc aa63 b23c 2797 88be 3733 f8be
00000350: b78f debe 7c48 883e 1a44 e1be 77d4 c93e
00000360: 2621 1ebf cbb2 bdbe 181a 40be 0ec5 d4bd
00000370: e8c1 363e 29b9 52be b4ed d3be 1ca0 b3be
00000380: 1c15 be3e c40c fd3e 4dc0 a1be 0137 cdbd
00000390: cbcc e53e 7bbc aa3e cec5 0dbf 2478 1a3f
000003a0: 5089 b6bd e8e7 ee3e b6d7 003f 36fd b63e
000003b0: 8b27 ee3e 6434 f3bd cc2b 8a3e dca4 b4be
000003c0: a71a 5f3e d022 f33d 3e55 10bf 61dd 01bf
000003d0: 4e47 9ebe 1e9c c1be 0e94 75be 0e3c 403e
000003e0: 6050 94be 97e0 87be 22d7 29bf c244 e73d
000003f0: 01db 15bf 9e2b f1be 781c 013e d507 ea3e

gc1.weight1 f4 [1433, 10]
0.29368243 0.3791446 -0.10973241 -0.42494705 -0.3241522 0.7666694 -0.04830051 -0.38403076
-0.16136354 -0.09488196 0.7180953 0.40401235 0.10676383 -0.36674586 0.19062622 -0.024987107
-0.77081543 0.086207144 -0.70970124 0.04643596 0.39532658 0.5201922 0.20768932 -0.38251907
-0.21919031 0.5446231 -0.11887675 -0.080300614 -0.17827664 0.15658441 -0.23959483 -0.104168296
0.3515496 -0.31455585 -0.6932958 0.00448983 0.4534125 -0.25485572 -0.15074909 0.080328576
0.75997436 0.5030834 0.37810564 0.5651766 0.62813205 0.7646541 -0.3555248 0.57151955
-0.6418817 0.03900576 -0.53903276 -0.384033 -0.0852749 0.4949223 0.20107672 -0.40641892
-0.016284488 0.55781883 0.41625234 -0.20213427 -0.57743907 0.3594396 0.38576353 0.034249227
-0.036589753 0.62891114 0.07982231 0.2909402 0.18450126 0.2582011 0.8788169 0.38189608
-0.5998428 -0.7675527 -0.73534584 -0.29521278 -0.6872451 -0.025322942 -0.34276298 0.9067819
0.32366303 0.60628754 0.53759444 0.29219663 0.50670207 0.6669062 -0.4092782 0.4948168
-0.40239415 -0.19827841 0.20200731 0.56035495 0.18957835 -0.2491035 0.07294915 0.61753356
-0.5550753 0.02744795 -0.3229471 0.18732144 0.50850517 -0.095237136 -0.63792795 -0.84503555
-0.6046512 0.37267733 0.0687573 -0.18458146 0.3144671 -0.15061411 -0.11696174 -0.039334167
-0.56621486 -0.6808977 -0.6681537 0.91291475 0.07312149 -0.1544205 0.38442883 -0.65258753
0.31998187 0.23746748 0.21093583 -0.050930433 -0.069257274 0.7917023 0.15907094 0.25298443
-0.26445377 -0.063831806 0.61306113 -0.39533737 -0.72964525 -0.7731483 -0.6620799 -0.53374946
0.3133094 0.041417208 0.30338323 0.78278553 0.63223654 0.57836133 0.19303533 -0.17520761
0.22411223 0.8042596 -0.4504575 -0.23986101 -0.5915767 0.5027597 -0.1304809 -0.36858064
-0.34873897 -0.5509656 -0.3515645 0.10710129 0.45128658 -0.34176895 0.31602463 -0.11713595
-0.60196835 -0.6809013 -0.6264718 -0.73742086 -0.64196575 -0.07767157 0.69352615 -0.2768436
0.8424982 -0.5732178 -0.56563413 -0.2658784 0.70982826 0.4348712 0.41076154 -0.28226706
-0.3057568 0.5092161 -0.10586233 -0.56596667 -0.23972322 -0.15893044 0.21674213 0.5303421
0.2666812 0.013904718 -0.16901356 0.51543057 0.32271582 -0.6922281 -0.19667934 -0.788601
-0.78354317 -0.8319141 -0.8609456 -0.6889992 0.8155352 0.26937068 0.88984185 -0.17032889
0.04991387 -0.3449764 -0.4406006 -0.3364681 -0.26049417 -0.37715784 0.41181004 0.40727952
0.4174277 0.36763078 0.29806203 0.15817377 0.5074591 -0.69201577 -0.82597417 0.63516086
0.5784796 -0.70466334 -0.801216 0.76068634 0.3658524 0.13147645 0.1376408 0.2693687
0.35425606 -0.42679253 -0.077553 0.6113058 0.021746702 0.41869074 -0.37988406 -0.3345303
-0.20268519 0.051995445 0.009895799 -0.21527368 0.11942492 0.3322869 0.6083204 0.08305214
-0.29306155 -0.34457424 0.69206923 0.5459584 0.12897636 -0.24128741 0.18484378 -0.084672235
-0.72923374 -0.3431006 -0.486583 -0.22770874 0.5689171 0.056565102 -0.3689419 0.30347866
00000000: 8b5d 963e 3e1f c23e 63bb e0bd a992 d9be
00000010: 47f7 a5be 7244 443f c1d6 45bd ae9f c4be
00000020: 7c3c 25be 7951 c2bd 18d5 373f b5da ce3e
00000030: ffa6 da3d 1dc6 bbbe 8533 433e c3b1 ccbc
00000040: 2954 45bf 5f8d b03d fbae 35bf a233 3e3d
00000050: 3f68 ca3e 512b 053f 82ac 543e 8ad9 c3be
00000060: 6d73 60be 6b6c 0b3f a775 f3bd a674 a4bd
00000070: 278e 36be aa57 203e 5958 75be 3056 d5bd
00000080: 4ffe b33e 770d a1be d57b 31bf 6d1f 933b
00000090: af25 e83e 737c 82be f85d 1abe 4f83 a43d
000000a0: ae8d 423f 13ca 003f 1097 c13e 6aaf 103f
000000b0: 43cd 203f 5fc0 433f 5907 b6be 1b4f 123f
000000c0: 5c52 24bf 81c4 1f3d 0dfe 09bf f99f c4be
000000d0: 9ba4 aebd 7566 fd3e 0ee7 4d3e 2416 d0be
000000e0: 0c67 85bc 37cd 0e3f 071f d53e 49fc 4ebe
000000f0: 0cd3 13bf 7808 b83e cc82 c53e eb48 0c3d
00000100: 23df 15bd 5200 213f e179 a33d 1df6 943e
00000110: e6ed 3c3e ef32 843e 25fa 603f e287 c33e
00000120: 4c8f 19bf 557e 44bf a03f 3cbf 2126 97be
00000130: 4bef 2fbf 0f72 cfbc a17e afbe dc22 683f
00000140: 29b7 a53e a935 1b3f ca9f 093f cc9a 953e
00000150: 3ab7 013f 5dba 2a3f ea8c d1be a158 fd3e
00000160: 9b06 cebe 7f09 4bbe 01db 4e3e 6c73 0f3f
00000170: d420 423e fd14 7fbe 5d66 953d ae16 1e3f
00000180: 6a19 0ebf 86da e03c 5359 a5be 31d1 3f3e
00000190: 652d 023f b00b c3bd 3f4f 23bf 4054 58bf
000001a0: 6cca 1abf 90cf be3e a1d0 8c3d ec02 3dbe
000001b0: d501 a13e 963a 1abe a389 efbd dd1c 21bd
000001c0: 75f3 10bf 504f 2ebf 1f0c 2bbf c8b4 693f
000001d0: b8c0 953d 6820 1ebe dbd3 c43e fa0f 27bf
000001e0: aad4 a33e ad2a 733e 90ff 573e 6e9c 50bd
000001f0: c2d6 8dbd 00ad 4a3f 7ee3 223e 2d87 813e
00000200: 7c66 87be 40ba 82bd 93f1 1c3f a969 cabe
00000210: 08ca 3abf 0ced 45bf 117e 29bf cea3 08bf
00000220: 176a a03e 17a5 293d 0c55 9b3e a264 483f
00000230: 41da 213f 7d0f 143f 0eab 453e a069 33be
00000240: ad7d 653e f5e3 4d3f 5ea2 e6be 209e 75be
00000250: 9271 17bf dcb4 003f c99c 05be 9ab6 bcbe
00000260: ea8d b2be 150c 0dbf 4300 b4be ec57 db3d
00000270: 090f e73e 57fc aebe fbcd a13e f9e4 efbd
00000280: 991a 1abf 8c4f 2ebf 7560 20bf 9dc7 3cbf
00000290: de57 24bf 4612 9fbd ee8a 313f 72be 8dbe
000002a0: f6ad 573f 67be 12bf 66cd 10bf 3721 88be
000002b0: 4eb7 353f 70a7 de3e 564f d23e 4f85 90be
000002c0: 288c 9cbe fd5b 023f 59ce d8bd 31e3 10bf
000002d0: 017a 75be a9be 22be a6f1 5d3e 80c4 073f
000002e0: 708a 883e 9dd0 633c e411 2dbe 42f3 033f
000002f0: 023b a53e dc35 31bf 4f66 49be c1e1 49bf
00000300: 4996 48bf 53f8 54bf ee66 5cbf 4062 30bf
00000310: eac6 503f f4ea 893e adcc 633f b26a 2ebe
00000320: 7c72 4c3d bfa0 b0be 6796 e1be 8c45 acbe
00000330: 7e5f 85be d51a c1be c4d8 d23e f186 d03e
00000340: 15b9 d53e 1a3a bc3e 969b 983e 4ef8 213e
00000350: d7e8 013f f227 31bf 0b73 53bf e799 223f
00000360: 3d17 143f d164 34bf 7e1c 4dbf 57bc 423f
00000370: 0151 bb3e c3a1 063e b6f1 0c3e b2ea 893e
00000380: 0d61 b53e 8d84 dabe 1bd4 9ebd 897e 1c3f
00000390: 2426 b23c a25e d63e 2a80 c2be 8e47 abbe
000003a0: b58c 4fbe 2df9 543d fd21 223c b470 5cbe
000003b0: 0d95 f43d 8221 aa3e e3ba 1b3f 3e17 aa3d
000003c0: 2a0c 96be 096c b0be 732b 313f eec3 0b3f
000003d0: 6112 043e 0c14 77be b047 3d3e a368 adbd
000003e0: 10af 3abf e2aa afbe 6821 f9be 7b2c 69be
000003f0: 8da4 113f cfb0 673d f4e5 bcbe 8e61 9b3e

gc1.weight2 f4 [1433, 10]
0.3134617 -0.1613817 0.0391676 -0.5720677 0.21912423 0.0710074 -0.24192134 0.36635268
0.41178542 0.15726934 0.3537645 -0.37198853 -0.18328653 -0.49210492 -0.6083191 -0.63052905
-0.717985 0.19292238 0.941978 -0.05101376 -0.004675378 0.1732531 0.021329612 -0.5156799
-0.008565496 0.086981274 -0.43051174 -0.0052745286 0.33707532 -0.5507088 -0.64499134 0.1158541
-0.09016653 -0.46164623 -0.39597297 -0.51164967 -0.50306445 -0.7279908 -0.21035585 -0.58109015
0.77004725 -0.86252 0.98916614 -0.12252897 0.90721446 -0.86579394 0.9077911 0.8134124
1.0079538 0.8089261 0.024152635 0.16027546 -0.7995533 0.69090194 0.07177111 0.3725961
-0.45761982 -0.50540304 0.056801766 0.07689871 -0.12430405 0.3279835 -0.6695088 0.025919685
0.008248495 0.30543345 0.30543777 -0.54478353 -0.5874033 -0.58356696 -0.20902842 0.43241134
0.028439922 -0.7474784 -0.7956224 -0.47054684 -0.8809475 0.82431465 0.87611175 -0.8037876
0.7558051 -0.5837733 -0.3914628 -0.064259015 0.4508362 0.08544763 -0.13980117 -0.08440278
0.048161507 0.46834064 0.5686033 0.5142157 -0.33919275 -0.47527778 -0.25685087 0.27932057
-0.5180036 0.31267062 0.3875885 -0.6221863 -0.55021036 0.888349 -0.13709821 -0.8678153
0.40398765 0.7531161 -0.8413541 0.84318686 0.5974989 0.022694524 -0.05344105 0.6977843
-0.1589698 -0.81543934 0.58989924 0.73168576 -0.4098045 0.69082314 0.0037157254 0.27059296
0.33989823 -0.25953922 0.55087245 -0.46630514 0.68806064 -0.24773067 0.55523086 0.28124025
0.2606214 0.49381962 -0.7864416 0.8153346 -0.1277132 -0.16454966 -0.66814774 -0.04940103
-0.54911184 0.52424705 0.6575263 -0.8314292 0.37336445 -0.31799844 0.6690311 -0.6329382
-0.09068085 -0.56205213 -0.3473447 0.6211058 0.48501736 0.12503307 -0.34329215 -0.1455608
0.5454933 -0.29158974 0.46301606 0.011586338 0.5712271 0.32440048 -0.103751056 0.30048296
-0.7922237 0.6371823 0.17710805 -0.4536295 0.7481852 0.55953914 0.7353885 0.64966744
-0.4463255 0.53117627 0.17434134 -0.35625815 -0.80501693 0.65646 -0.07315748 -0.20180975
-0.5035508 -0.5635856 -0.5940376 0.2398072 0.42362356 -0.45275182 -0.5496263 0.23216505
0.69525176 0.17171596 -0.23145868 -0.4342689 0.11588115 0.50011635 -0.89283216 0.87429494
-0.34892082 -0.4417134 0.6827143 0.82819724 0.36049595 0.858058 0.2757161 0.16753586
-0.72456723 0.5132428 -0.4952945 0.27034175 0.24903591 0.33943015 0.40698278 0.45604366
0.4213766 -0.22027272 -0.7102899 -0.055462405 0.67566013 -0.7785683 -0.8676639 -0.6642111
-0.2649537 -0.5231264 -0.13657008 -0.7050719 0.08644626 -0.21552455 0.1670933 0.5777868
0.42242903 -0.43188158 0.49897844 0.40251842 0.4178721 0.37780312 -0.37519792 0.6060148
-0.4948398 0.3053611 0.4760643 0.32609123 0.6784827 0.05326022 0.058005884 -0.42499527
0.20352347 -0.9112753 -0.21886256 0.6257623 -0.44344017 -0.87030274 -0.3040058 -0.7169837
-0.05075564 0.66774803 -0.233514 -0.65741456 0.096023165 -0.09090733 0.15232629 -0.41546822
00000000: 0d7e a03e 3f41 25be 356e 203d 0773 12bf
00000010: 1a62 603e 546c 913d 3aba 77be 9492 bb3e
00000020: 8ad5 d23e 370b 213e 9f20 b53e 4875 bebe
00000030: 77af 3bbe 2df5 fbbe cdba 1bbf 5a6a 21bf
00000040: ddcd 37bf 728d 453e 7825 713f cef3 50bd
00000050: ea33 99bb 4369 313e 70bb ae3c 9903 04bf
00000060: 4b56 0cbc 3d23 b23d 096c dcbe f4d5 acbb
00000070: 2395 ac3e 40fb 0cbf 271e 25bf ea44 ed3d
00000080: 3ba9 b8bd e55c ecbe f8bc cabe 79fb 02bf
00000090: d5c8 00bf 9b5d 3abf 8667 57be 53c2 14bf
000000a0: d121 453f 1cce 5cbf fe39 7d3f 78f0 fabd
000000b0: 353f 683f aca4 5dbf ff64 683f cc3b 503f
000000c0: a104 813f c815 4f3f bfdb c53c 401f 243e
000000d0: 86af 4cbf f3de 303f bbfc 923d ebc4 be3e
000000e0: 254d eabe 1862 01bf f8a8 683d 127d 9d3d
000000f0: 1f93 febd 74ed a73e ee64 2bbf 8555 d43c
00000100: b224 073c c661 9c3e 5762 9c3e ef76 0bbf
00000110: 1060 16bf a564 15bf 8c0b 56be 0565 dd3e
00000120: d7fa e83c bf5a 3fbf e9ad 4bbf 84eb f0be
00000130: c685 61bf 4906 533f dc48 603f 06c5 4dbf
00000140: 717c 413f 2b72 15bf d06d c8be 3b9a 83bd
00000150: 01d4 e63e 2bff ae3d 0a28 0fbe 5ddb acbd
00000160: 0045 453d 58ca ef3e fc8f 113f a4a3 033f
00000170: acaa adbe 9c57 f3be f581 83be 1b03 8f3e
00000180: e29b 04bf 5d16 a03e 0072 c63e 9a47 1fbf
00000190: 96da 0cbf d76a 633f 7963 0cbe 2529 5ebf
000001a0: 78d7 ce3e 37cc 403f fb62 57bf 18db 573f
000001b0: b0f5 183f dee9 b93c 01e5 5abd fea1 323f
000001c0: fbc8 22be a2c0 50bf a303 173f c24f 3b3f
000001d0: e5d1 d1be c9d9 303f 8783 733b 298b 8a3e
000001e0: 2407 ae3e 53e2 84be fa05 0d3f 8cbf eebe
000001f0: be24 303f 1cad 7dbe 9c23 0e3f b9fe 8f3e
00000200: 2b70 853e edd5 fc3e 3d54 49bf c5b9 503f
00000210: 40c7 02be b57f 28be bb0b 2bbf bc58 4abd
00000220: 9892 0cbf 0e35 063f a553 283f 8bd8 54bf
00000230: a029 bf3e b1d0 a2be 9f45 2b3f 3d08 22bf
00000240: e2b6 b9bd a6e2 0fbf 2ad7 b1be ca00 1f3f
00000250: 3254 f83e ab08 003e fdc3 afbe e40d 15be
00000260: 73a5 0b3f 404b 95be 7110 ed3e a0d4 3d3c
00000270: f03b 123f d217 a63e 6f7b d4bd e7d8 993e
00000280: 2ccf 4abf 611e 233f d05b 353e 2042 e8be
00000290: 1189 3f3f f53d 0f3f 6c42 3c3f 9b50 263f
000002a0: c784 e4be 2bfb 073f 8986 323e 7867 b6be
000002b0: 9715 4ebf c30d 283f 97d3 95bd 37a7 4ebe
000002c0: b5e8 00bf 2547 10bf d912 18bf 0590 753e
000002d0: 30e5 d83e 16cf e7be 4fb4 0cbf adbc 6d3e
000002e0: 05fc 313f 4fd6 2f3e 8103 6dbe 7e58 debe
000002f0: 1953 ed3d a007 003f a690 64bf cbd1 5f3f
00000300: c0a5 b2be 4228 e2be 5dc6 2e3f bc04 543f
00000310: ed92 b83e b0a9 5b3f a92a 8d3e 858e 2b3e
00000320: 3d7d 39bf e163 033f 3e97 fdbe 3c6a 8a3e
00000330: 4503 7f3e cac9 ad3e 0c60 d03e 8e7e e93e
00000340: acbe d73e 2c8f 61be 8fd5 35bf 8c2c 63bd
00000350: 10f8 2c3f 4150 47bf 391f 5ebf bd09 2abf
00000360: 03a8 87be 9deb 05bf 07d9 0bbe 987f 34bf
00000370: bd0a b13d 78b2 5cbe 821a 2b3e d6e9 133f
00000380: 9e48 d83e 951f ddbe 1a7a ff3e e516 ce3e
00000390: 55f3 d53e 696f c13e f119 c0be c923 1b3f
000003a0: a45b fdbe 4a58 9c3e b3be f33e 6ef5 a63e
000003b0: 0bb1 2d3f 6327 5a3d 9497 6d3d fb98 d9be
000003c0: 7568 503e 5749 69bf 821d 60be f531 203f
000003d0: 970a e3be 29cc 5ebf a6a6 9bbe 3e8c 37bf
000003e0: 25e5 4fbd 89f1 2a3f 4b1e 6fbe 524c 28bf
000003f0: cba7 c43d 9f2d babd 6cfb 1b3e 40b8 d4be

gc1.weight3 f4 [1433, 13]
0.2776891 0.023371043 -0.30055457 -0.4058608 -0.23422292 0.28405112 -0.074916326 -0.043421045
-0.4403889 -0.26280132 0.0753001 0.32928252 0.30826047 0.25015318 0.009356321 -0.36066622
-0.46994966 -0.263192 0.3612689 -0.17212863 0.31918576 -0.4352778 -0.11443388 0.312089
-0.06638739 0.40670884 0.050875906 -0.48841068 0.18156107 -0.49106315 -0.09951387 -0.0734127
0.044981327 -0.07914692 -0.066212475 0.46718547 -0.37477115 -0.07507855 0.07719904 -0.009562145
0.31119427 0.30527887 -0.19596554 -0.2564708 0.13700816 -0.048379254 -0.20045187 -0.33324444
-0.08852249 -0.11416574 0.37306485 0.32167023 0.09504496 0.16713779 -0.019574784 -0.2570778
-0.21885929 0.29206604 -0.05431144 0.05560392 -0.122381926 -0.18837102 0.18874726 0.26947007
0.20102516 0.36995992 0.27150026 -0.53669065 -0.08837593 -0.25406972 0.46795845 0.17224273
0.42251086 -0.07450784 -0.5358238 0.26359594 0.30931887 0.20486844 0.25908092 -0.1893262
-0.58689433 0.1771182 0.31599593 0.14277065 0.25984675 0.43317807 -0.20964989 -0.17029178
0.33019188 -0.5732887 -0.49124667 0.2508689 -0.42395318 0.5761431 0.063645914 0.16356893
-0.30833414 -0.46640268 -0.46603748 -0.23186791 0.80832464 -0.3232509 -0.4304305 -0.5399231
0.52568454 -0.11903325 -0.70965886 0.2229078 0.021670012 0.29383078 -0.197997 0.28250974
-0.38978237 -0.44782773 0.42189553 -0.21030357 -0.43593523 -0.058945984 -0.012802042 0.002127482
0.3511243 0.26657853 -0.40342587 0.027883656 -0.028153563 -0.39880452 -0.08862498 -0.112674765
-0.28196806 -0.3869722 -0.7509514 -0.1250476 0.12440249 0.015784482 0.65937 -0.58534825
0.39973173 0.019757122 -0.06552866 0.2820998 -0.36911198 -0.051781558 -0.2523616 -0.27089384
-0.040416524 -0.18191038 0.29624844 0.55037886 -0.5910572 0.4600076 0.23052076 -0.0003695486
-0.21242769 -0.00762253 -0.16402012 -0.41869327 -0.22309995 0.01044332 0.19548291 0.43749246
-0.057039663 -0.45417365 0.20633592 -0.20133162 -0.5053519 0.17740877 -0.3101429 -0.3729079
-0.26029092 -0.44495055 -0.48358727 -0.157673 -0.14133221 0.13726479 0.07702761 -0.06779412
-0.10815492 -0.14631675 0.34941715 -0.23136075 -0.21061128 -0.10732591 -0.47101256 0.3338944
-0.11593345 0.521323 0.40807697 -0.555535 0.5821067 0.051487166 -0.23128635 -0.3844747
-0.24942079 0.32378826 0.32168707 0.33539093 -0.3410506 -0.0793935 -0.33003458 -0.014186731
0.3707764 0.20154189 -0.14948127 0.386875 0.39329273 0.08269104 -0.2646378 -0.17087463
-0.30217046 0.043106142 -0.18185812 -0.051378198 0.25344554 0.04603883 0.21892132 0.13535227
0.054369643 -0.03609873 -0.055108506 0.22447397 -0.014267934 0.061895646 -0.14355247 -0.017251074
0.117563844 0.062660046 -0.17669196 -0.10402744 0.022643508 -0.43730462 -0.28828943 0.016799817
-0.13404049 -0.048213676 -0.07854009 0.016468868 -0.3902261 -0.09333399 0.027368303 0.10863013
0.17381431 0.13078527 -0.2511851 -0.12682322 0.15816711 -0.056969885 -0.30781522 0.24075106
-0.19842301 0.19600518 0.33276525 -0.081347466 -0.3080003 -0.34278485 -0.14875154 -0.4730419
00000000: 442d 8e3e a174 bf3c 4ae2 99be fdcc cfbe
00000010: 22d8 6fbe 266f 913e bb6d 99bd 44da 31bd
00000020: a77a e1be e58d 86be f036 9a3d b897 a83e
00000030: 51d4 9d3e 1414 803e 414b 193c 3ea9 b8be
00000040: 3e9d f0be 1ac1 86be 3df8 b83e 7d42 30be
00000050: 516c a33e bbdc debe 4f5c eabd 21ca 9f3e
00000060: 1df6 87bd 243c d03e 4163 503d f710 fabe
00000070: 25eb 393e a16c fbbe eecd cbbd 6659 96bd
00000080: 573e 383d c817 a2bd 689a 87bd ef32 ef3e
00000090: 01e2 bfbe c8c2 99bd 881a 9e3d 8baa 1cbc
000000a0: db54 9f3e 834d 9c3e 31ab 48be 2450 83be
000000b0: de4b 0c3e 5329 46bd 4143 4dbe 049f aabe
000000c0: 474b b5bd bacf e9bd 5b02 bf3e f6b1 a43e
000000d0: efa6 c23d 2b26 2b3e 4c5b a0bc b49f 83be
000000e0: a61c 60be ae89 953e ac75 5ebd f0c0 633d
000000f0: 60a3 fabd 55e4 40be f646 413e fbf7 893e
00000100: 8ad9 4d3e 636b bd3e 1502 8b3e 8f64 09bf
00000110: 71fe b4bd 6d15 82be 4098 ef3e 6660 303e
00000120: 5853 d83e 9197 98bd c02b 09bf 0cf6 863e
00000130: 0b5f 9e3e 08c9 513e 41a6 843e bade 41be
00000140: b53e 16bf 795e 353e 38ca a13e 7832 123e
00000150: a20a 853e 84c9 dd3e 76ae 56be f860 2ebe
00000160: e90e a93e 0cc3 12bf af84 fbbe e371 803e
00000170: 6410 d9be 1d7e 133f ca58 823d 9d7e 273e
00000180: f9dd 9dbe 55cc eebe 779c eebe c86e 6dbe
00000190: 5dee 4e3f 2481 a5be 6361 dcbe 6638 0abf
000001a0: 4393 063f b4c7 f3bd 34ac 35bf f141 643e
000001b0: 4f85 b13c fd70 963e babf 4abe 1ea5 903e
000001c0: 8e91 c7be ad49 e5be b102 d83e d259 57be
000001d0: e732 dfbe 5871 71bd a8bf 51bc 3a6d 0b3b
000001e0: 90c6 b33e fb7c 883e d68d cebe 446c e43c
000001f0: 4da2 e6bc 1b30 ccbe 0381 b5bd 07c2 e6bd
00000200: 1e5e 90be 3821 c6be 5a3e 40bf 7a0c 00be
00000210: bcc6 fe3d 754e 813c 79cc 283f 62d9 15bf
00000220: a3a9 cc3e b0d9 a13c e433 86bd 636f 903e
00000230: 3ffc bcbe e618 54bd 8a35 81be 99b2 8abe
00000240: cc8b 25bd b746 3abe e0ad 973e a1e5 0c3f
00000250: 864f 17bf 1e86 eb3e a20d 6c3e f9bf c1b9
00000260: a586 59be 6bc6 f9bb e4f4 27be f75e d6be
00000270: 5074 64be 751a 2b3c ac2c 483e 03ff df3e
00000280: 6ca2 69bd 7389 e8be b949 533e e029 4ebe
00000290: be5e 01bf a5aa 353e 0dcb 9ebe c9ed bebe
000002a0: da44 85be 8fd0 e3be c098 f7be 0875 21be
000002b0: 64b9 10be 248f 0c3e a7c0 9d3d a5d7 8abd
000002c0: 5480 ddbd 0fd4 15be cee6 b23e d5e9 6cbe
000002d0: 7caa 57be b0cd dbbd 8f28 f1be 35f4 aa3e
000002e0: 846e edbd 6d75 053f 77ef d03e 8b37 0ebf
000002f0: f204 153f 35e4 523d 54d6 6cbe ded9 c4be
00000300: 2a68 7fbe 93c7 a53e 2bb4 a43e 5cb8 ab3e
00000310: 2f9e aebe 0f99 a2bd 4bfa a8be 766f 68bc
00000320: 68d6 bd3e ff60 4e3e 9e11 19be 7b14 c63e
00000330: aa5d c93e ec59 a93d 9b7e 87be c2f9 2ebe
00000340: 16b6 9abe 1190 303d 0439 3abe f271 52bd
00000350: 9dc3 813e 3693 3c3d e92c 603e c999 0a3e
00000360: b4b2 5e3d 43dc 13bd 75b9 61bd 81dc 653e
00000370: 0dc4 69bc 4a86 7d3d 6bff 12be 2052 8dbc
00000380: 50c5 f03d e953 803d bdee 34be 570c d5bd
00000390: e17e b93c 64e6 dfbe ac9a 93be c59f 893c
000003a0: e941 09be b47b 45bd a0d9 a0bd b8e9 863c
000003b0: b7cb c7be e425 bfbd 7e33 e03c 7979 de3d
000003c0: 61fc 313e 93ec 053e 559b 80be f2dd 01be
000003d0: 8ff6 213e 4159 69bd f599 9dbe 7287 763e
000003e0: 672f 4bbe 95b5 483e 3560 aa3e 8099 a6bd
000003f0: 37b2 9dbe 7f81 afbe 5352 18be 8c32 f2be

gc1.weight4 f4 [1433, 25]
-0.68111986 0.32498354 -0.5203085 -0.25795367 -0.03258977 0.05789923 -0.38567784 -0.325293
0.19370002 -0.8555312 -0.5339238 -0.6471981 -0.38433462 0.0010326988 0.54546607 0.381777
-0.051780745 -0.5362268 0.6973024 -0.8510707 0.09390732 0.68058854 -0.12859161 -0.10849019
0.33911446 -0.2960273 -0.8729245 -0.62310576 -0.62061393 0.6862396 -0.5111689 0.83054614
0.36882368 -0.7635071 -0.2918831 -0.49707615 0.20693119 0.591282 0.0067519513 0.5921171
0.49349564 -0.06643697 -0.69484305 -0.13356386 -0.54067975 0.15570855 0.5850407 -0.93969333
-0.8105153 -0.40883598 -0.054776173 0.2947393 -0.28312063 -0.25888675 0.12716576 -0.3959488
-0.30725533 0.047969654 0.23673384 -0.25617322 -0.6728828 -0.15313722 -0.10484012 -0.024429964
0.39241555 0.51733583 -0.04205542 -0.69964933 0.5694614 -0.9052983 0.40808707 0.14505176
0.093399085 -0.28221574 -0.14626522 0.36735812 0.47728276 0.078768335 0.40041688 0.1324204
-0.06292969 -0.17704947 0.28924748 0.2976397 -0.63404393 0.17427835 0.12828043 -0.09507653
-0.0211919 0.1904902 0.09789871 -0.00608255 0.071731366 -0.03295408 0.006429238 -0.5191786
0.37587807 -0.5104453 -0.17579645 0.486014 0.6714653 -0.58568525 0.6577586 0.69203144
0.58186424 -0.11730079 0.7814517 0.740693 -0.51771927 0.58399534 0.8776339 0.77473766
0.45162535 0.0360494 -0.5472319 -0.6492663 -0.012669892 0.808471 -0.32480416 1.0520258
-0.70719975 -0.0353852 -0.81341213 0.011135811 0.21307456 -0.62013876 -0.03863715 0.3159173
0.5771 0.2731269 0.30075073 0.14951764 -0.13130954 -0.56530476 -0.17624892 0.40642157
0.19895339 0.27636117 0.045794293 0.3606639 -0.47097626 -0.03716548 0.07121823 0.10269888
0.42806938 -0.4813444 0.563251 -0.32204017 0.43724284 -0.049876504 -0.13404906 -0.012494719
-0.44158414 -0.12677732 -0.036218558 0.08087822 0.06829413 -0.16294226 0.19756804 -0.42860463
-0.5309731 -0.12798715 -0.2621032 -0.045946985 -0.15803671 0.39905328 0.0096805515 0.063713275
-0.09608687 -0.5068661 0.3384827 0.2107892 -0.24142908 -0.3209218 0.2888246 -0.66081
-0.094331436 0.46637332 -0.324846 0.2363717 0.20494515 0.026657302 -0.56473976 -0.42450947
-0.18221518 -0.33355886 -0.53214103 0.014489193 -0.03550562 0.4590277 -0.04368675 -0.0034978653
0.0039542164 0.46738833 -0.21173601 0.10905188 0.16684368 -0.07841807 0.036670905 0.22462389
-0.536113 -0.13032389 -0.28851256 0.3615084 0.19433497 0.5564102 0.1782947 -0.12445637
0.0020447907 -0.25264955 0.13538672 -0.29169673 -0.31130987 0.027642464 0.118229076 -0.46831194
-0.053393897 0.52861154 -0.79970866 0.14686547 -0.23313725 0.6502253 -0.3647654 0.5166923
0.6153971 0.16701262 -0.060996305 -0.1781302 -0.016498873 0.31626093 -0.109574385 0.023494568
0.39891994 -0.06940735 -0.17951462 -0.16866659 0.16390914 0.011760495 -0.06512925 0.1911188
0.15632926 -0.030644791 -0.24488115 0.33052474 -0.29794753 -0.1561963 -0.02007302 -0.39899933
-0.38948843 0.098376915 0.28140298 0.55051583 -0.13342653 0.6204 0.051339913 0.28827125
00000000: df5d 2ebf 3e64 a63e f032 05bf 8112 84be
00000010: da7c 05bd be27 6d3d 9177 c5be ce8c a6be
00000020: 4c59 463e 1804 5bbf 3baf 08bf c6ae 25bf
00000030: 82c7 c4be 9f5b 873a aaa3 0b3f 4678 c33e
00000040: 0c18 54bd 2946 09bf 6982 323f c5df 59bf
00000050: 7b52 c03d 0d3b 2e3f 85ad 03be 1b30 debd
00000060: 69a0 ad3e e490 97be fb77 5fbf dc83 1fbf
00000070: 8ee0 1ebf 66ad 2f3f f7db 02bf ac9e 543f
00000080: 75d6 bc3e 3475 43bf b471 95be c480 febe
00000090: c5e5 533e 425e 173f 793f dd3b fc94 173f
000000a0: 76ab fc3e 1b10 88bd 3ce1 31bf f7c4 08be
000000b0: fd69 0abf 1072 1f3e 3ac5 153f be8f 70bf
000000c0: ee7d 4fbf f352 d1be fb5c 60bd 12e8 963e
000000d0: 30f5 90be ce8c 84be be37 023e cdb9 cabe
000000e0: 9250 9dbe d47b 443d 5b6a 723e 2329 83be
000000f0: 0c42 2cbf 01d0 1cbe 6bb6 d6bd 5921 c8bc
00000100: b1ea c83e 1f70 043f 4e42 2cbd 381c 33bf
00000110: 39c8 113f a1c1 67bf caf0 d03e 7388 143e
00000120: 0548 bf3d 957e 90be 8dc6 15be 5d16 bc3e
00000130: 685e f43e 4b51 a13d 7103 cd3e 3799 073e
00000140: 48e1 80bd 754c 35be 3f18 943e 3b64 983e
00000150: b450 22bf 0676 323e f25b 033e 7cb7 c2bd
00000160: a39a adbc dd0f 433e 1e7f c83d 2150 c7bb
00000170: e5e7 923d dbfa 06bd 5bac d23b e4e8 04bf
00000180: 1773 c03e 8bac 02bf fc03 34be d4d6 f83e
00000190: 26e5 2b3f 78ef 15bf de62 283f f928 313f
000001a0: 0ef5 143f 663b f0bd 380d 483f 0e9e 3d3f
000001b0: 4089 04bf b880 153f 9eac 603f 3555 463f
000001c0: 703b e73e 89a8 133d 6417 0cbf 5136 26bf
000001d0: 6195 4fbc f5f7 4e3f bb4c a6be c8a8 863f
000001e0: 0b0b 35bf 12f0 10bd c73b 50bf fa72 363c
000001f0: 3830 5a3e 6ac1 1ebf fd41 1ebd eabf a13e
00000200: d3bc 133f 4ad7 8b3e 00fc 993e 271b 193e
00000210: 0276 06be d0b7 10bf 997a 34be 7d16 d03e
00000220: 70ba 4b3e 367f 8d3e cc92 3b3d f0a8 b83e
00000230: cd23 f1be d53a 18bd ddda 913d ca53 d23d
00000240: e92b db3e c672 f6be 3831 103f 73e2 a4be
00000250: 4bde df3e 4e4b 4cbd 2844 09be a6b6 4cbc
00000260: 5117 e2be ead1 01be e959 14bd 7ba3 a53d
00000270: cbdd 8b3d 56da 26be 474f 4a3e 1172 dbbe
00000280: daed 07bf 100f 03be 6432 86be e832 3cbd
00000290: 60d4 21be b650 cc3e 2d9b 1e3c 1b7c 823d
000002a0: 31c9 c4bd fac1 01bf 9b4d ad3e 20d9 573e
000002b0: 2f39 77be dd4f a4be d1e0 933e d82a 29bf
000002c0: d730 c1bd 7cc8 ee3e 3752 a6be 6c0b 723e
000002d0: 24dd 513e 6a60 da3c c992 10bf 4e59 d9be
000002e0: 9e96 3abe 3ac8 aabe 653a 08bf 1564 6d3c
000002f0: 576e 11bd ae05 eb3e e1f0 32bd 713c 65bb
00000300: 5f92 813b 864d ef3e 53d1 58be 9856 df3d
00000310: 12d9 2a3e a799 a0bd 3b34 163d ce03 663e
00000320: b43e 09bf a073 05be ebb7 93be a117 b93e
00000330: bfff 463e e670 0e3f e392 363e fbe2 febd
00000340: e501 063b 485b 81be d1a2 0a3e 4659 95be
00000350: 0264 9fbe 7372 e23c 1622 f23d 95c6 efbe
00000360: 8fb3 5abd 1653 073f b5b9 4cbf e763 163e
00000370: 88bb 6ebe 2a75 263f 88c2 babe f245 043f
00000380: aa8a 1d3f 5b05 2b3e 43d7 79bd c367 36be
00000390: a528 87bc f4ec a13e 8968 e0bd ae77 c03c
000003a0: 3c3f cc3e 7125 8ebd aed2 37be efb6 2cbe
000003b0: ccd7 273e 17af 403c 7c62 85bd a6b4 433e
000003c0: c714 203e c90a fbbc 20c2 7abe 8a3a a93e
000003d0: 948c 98be ecf1 1fbe 2d70 a4bc a449 ccbe
000003e0: 076b c7be d679 c93d 0d14 903e 9bee 0c3f
000003f0: f7a0 08be 89d2 1e3f cd49 523d 4a98 933e

gc1.bias1 f4 [10]
0.56814826 -0.51461935 -0.5978455 -0.564006 -0.4635793 -0.53055626 0.45572355 0.5791624
0.61493117 -0.5742463
00000000: 2a72 113f 18be 03bf 670c 19bf b262 10bf
00000010: 445a edbe 89d2 07bf 9954 e93e fd43 143f
00000020: 216c 1d3f ce01 13bf

gc1.bias0 f4 [10]
-0.5204272 0.5056609 -0.4754779 0.59558564 -0.46337512 -0.51567066 -0.45942664 -0.6052217
0.55797035 -0.54884166
00000000: b83a 05bf fe72 013f d771 f3be 4d78 183f
00000010: 813f edbe fe02 04bf f839 ebbe cfef 1abf
00000020: 25d7 0e3f e380 0cbf

gc1.bias2 f4 [10]
-0.47176394 -0.59129214 -0.5364223 -0.47091132 0.5161093 -0.5419051 -0.4679971 -0.43971282
0.4631993 0.61266357
00000000: 0b8b f1be ec5e 17bf f952 09bf 4a1b f1be
00000010: bd1f 043f 4bba 0abf 519d efbe 0a22 e1be
00000020: 7528 ed3e 85d7 1c3f

gc1.bias3 f4 [13]
0.5303569 -0.40693185 -0.48023355 -0.43456843 -0.40871266 -0.47234347 -0.47103345 -0.405461
-0.48161522 0.4715869 -0.3445775 0.4267526 -0.5117846
00000000: 78c5 073f 5f59 d0be 2ce1 f5be c17f debe
00000010: c942 d1be 01d7 f1be 4c2b f1be 9698 cfbe
00000020: 4596 f6be d773 f13e 766c b0be 517f da3e
00000030: 5104 03bf

gc1.bias4 f4 [25]
-0.5442248 0.49623016 0.5221836 0.44524866 0.43759602 0.45473403 -0.49709228 0.49159658
-0.43770844 -0.5006178 -0.50605273 -0.4984752 0.42287573 0.010656876 0.52460206 -0.45713657
-0.0012455189 -0.48357326 0.4959449 -0.5258462 -0.47898707 0.49049333 -0.4813044 0.5077023
0.47122818
00000000: 5152 0bbf e111 fe3e d3ad 053f a2f7 e33e
00000010: 960c e03e e6d2 e83e e182 febe 8cb2 fb3e
00000020: 521b e0be 7d28 00bf ac8c 01bf 2438 ffbe
00000030: 2b83 d83e 2d9a 2e3c 524c 063f ce0d eabe
00000040: ae40 a3ba ea96 f7be 7dec fd3e db9d 06bf
00000050: cb3d f5be f121 fb3e 886d f6be c7f8 013f
00000060: d244 f13e

gc11.weight f4 [68, 7]
0.32022566 -0.62483025 0.7432442 0.5872401 -0.7866618 -0.84511745 -0.642228 -0.752576
-0.3300517 0.6997083 0.53045756 -0.96251327 -0.8804341 0.39936402 0.5304695 -1.0179865
-0.8617736 0.52698666 -0.9019156 0.28145552 0.6969199 0.07458815 0.5003199 0.3859244
0.44428888 -0.2867064 -0.58119905 -0.99592143 0.030717442 0.73229307 0.26054537 -1.0543687
-1.1026663 -0.6750779 0.2757079 -0.8020048 0.4043961 -1.0273055 -0.67512846 0.591523
-0.7621399 0.6722822 0.49633822 0.5984239 -0.72572845 -0.9483549 -0.089559965 0.651565
-0.77872306 0.53133994 -0.5304066 -0.59644735 0.14156432 0.61261755 0.11288604 -0.59129506
-0.6112381 0.6271385 0.55859846 0.34608504 -0.38968733 0.55043876 -0.8446776 0.23301533
-0.74228543 0.5552024 -0.5143307 0.48724613 -0.97381765 0.30931342 -0.37650603 0.5987704
-0.4238441 -0.031938422 -0.8101426 0.58937883 -0.83006537 0.31629056 -0.97888577 -0.7949538
0.5221715 0.49304947 -0.7757702 0.4642297 -0.23459634 0.15393783 -0.5049464 0.6494079
0.68524736 -0.8281602 -0.5867428 0.45599416 0.49587137 -0.3546673 0.40654004 0.4673396
-0.26316556 -0.8498371 0.5552559 0.2891183 -0.8901929 0.30667853 0.4455408 -1.0495191
-0.19877389 -0.3410157 -0.8868264 -1.0558339 0.65387803 -0.59004414 -0.68327487 0.6292496
0.50554055 -0.75464183 -1.1234856 0.38584542 0.5252876 -0.72094375 0.057186563 -0.8445477
-0.4307464 0.5221375 0.28765717 -0.8174374 0.37950623 0.23480189 -0.037637223 -0.60601425
0.38770425 0.47015414 0.48731273 -0.59120566 -0.5319425 -0.5839273 -0.6667255 0.43883213
-0.58334154 0.58337915 -0.49881893 0.6898076 0.48376414 -0.07465582 -0.7275684 0.5024906
0.45177674 -1.0482954 0.061176304 0.2570789 -0.41965201 -0.44976822 -0.69474155 -0.615725
0.54954433 0.50840986 -0.9072389 -0.41946387 0.2902997 -0.042334888 -0.9223121 -0.9569439
0.22618459 0.31845954 0.56615555 -0.7484737 -0.6243719 0.43646562 -0.28712735 -0.9930036
-0.82870483 -0.9838928 0.33745855 0.0034513122 0.39512426 0.32480887 -0.98906696 0.44400942
0.13003205 -0.73168516 -0.14891458 -0.6310895 0.43782097 0.3895399 -0.43020245 0.7088714
0.01829233 -0.6549325 -1.1231672 -0.78997874 0.71798646 0.54082716 -0.86099803 0.43674308
-0.9529389 -0.8648341 -0.72756267 0.7539631 -0.7742573 0.6387342 -0.062964976 0.35414612
-0.9173821 0.70794314 -0.01731928 -0.50091785 -0.85829955 -0.5546117 -0.40181562 0.4991355
0.5814359 0.4860441 -0.3029667 -0.13700348 0.25153938 -0.62750685 -0.42331553 0.63228256
0.0801289 -0.572415 0.17091294 -0.18799342 0.33073753 -0.5516655 0.57567024 -0.5434793
-0.15185085 -0.48698494 0.5968525 -0.46725067 0.3444828 -0.16117671 -0.15421581 -0.4802451
-0.46333498 -0.45318872 -0.29978815 0.5156732 0.6862153 0.326177 0.07086205 -0.118603
-0.08951356 -0.21549183 -0.13673624 0.2618577 0.5545091 0.15065196 0.42695707 -0.067710385
0.21103138 -0.5237645 -0.6787534 -0.56364477 0.2665353 0.12114971 0.28139767 0.007429877
00000000: 9ef4 a33e e0f4 1fbf 4045 3e3f 5e55 163f
00000010: ab62 49bf 9e59 58bf 0e69 24bf d2a8 40bf
00000020: 89fc a8be 1520 333f 11cc 073f 4567 76bf
00000030: 2164 61bf 7179 cc3e d9cc 073f 624d 82bf
00000040: 329d 5cbf 99e8 063f f1e3 66bf f01a 903e
00000050: 5869 323f acc1 983d f714 003f e297 c53e
00000060: d579 e33e 2ecb 92be 76c9 14bf b5f4 7ebf
00000070: 25a3 fb3c 8f77 3b3f 3466 853e 8ef5 86bf
00000080: 2b24 8dbf e8d1 2cbf 9629 8d3e 3050 4dbf
00000090: 010d cf3e bf7e 83bf 38d5 2cbf 0d6e 173f
000000a0: 9a1b 43bf b01a 2c3f 0b20 fe3e 4f32 193f
000000b0: 57c9 39bf 63c7 72bf 376b b7bd f7cc 263f
000000c0: 655a 47bf e505 083f bac8 07bf c6b0 18bf
000000d0: 3df6 103e 81d4 1c3f cc30 e73d 1d5f 17bf
000000e0: 1a7a 1cbf 268c 203f 4f00 0f3f 0f32 b13e
000000f0: 1985 c7be 8ee9 0c3f cb3c 58bf 929b 6e3e
00000100: 6b06 3ebf bf21 0e3f 2dab 03bf 5378 f93e
00000110: 1d4c 79bf 545e 9e3e 66c5 c0be 0449 193f
00000120: 1802 d9be ddd1 02bd 8165 4fbf 88e1 163f
00000130: 2a7f 54bf d6f0 a13e 4298 7abf 1882 4bbf
00000140: 08ad 053f fb70 fc3e e098 46bf 84af ed3e
00000150: 063a 70be e1a1 1d3e 2b44 01bf 993f 263f
00000160: 5f6c 2f3f 4f02 54bf c734 16bf 1178 e93e
00000170: dae2 fd3e f496 b5be 0426 d03e 2347 ef3e
00000180: a3bd 86be ed8e 59bf 4025 0e3f 5007 943e
00000190: afe3 63bf f804 9d3e ec1d e43e a456 86bf
000001a0: 628b 4bbe 9c99 aebe 0e07 63bf 9125 87bf
000001b0: 8d64 273f 220d 17bf 1aeb 2ebf 8016 213f
000001c0: 1b6b 013f 3530 41bf 60ce 8fbf 888d c53e
000001d0: 4079 063f c58f 38bf 753c 6a3d 4734 58bf
000001e0: cb8a dcbe ceaa 053f cd47 933e 9443 51bf
000001f0: a44e c23e e86f 703e 7d29 1abd c023 1bbf
00000200: 2c81 c63e 0bb8 f03e 0e81 f93e 4159 17bf
00000210: 622d 08bf 427c 15bf 86ae 2abf 9bae e03e
00000220: df55 15bf 5658 153f 3265 ffbe 3b97 303f
00000230: efaf f73e 27e5 98bd ec41 3abf 39a3 003f
00000240: 484f e73e 8b2e 86bf 0194 7a3d d89f 833e
00000250: a1dc d6be 0548 e6be 95da 31bf 27a0 1dbf
00000260: f0ae 0c3f 2627 023f cf40 68bf f8c3 d6be
00000270: 2aa2 943e 5967 2dbd a51c 6cbf 47fa 74bf
00000280: ef9c 673e 210d a33e 92ef 103f f99b 3fbf
00000290: d6d6 1fbf 6c78 df3e 5b02 93be 7c35 7ebf
000002a0: 0026 54bf 66e0 7bbf 5ec7 ac3e 692f 623b
000002b0: ba4d ca3e 594d a63e 7e33 7dbf 3455 e33e
000002c0: 1f27 053e b84f 3bbf 107d 18be 158f 21bf
000002d0: 122a e03e c671 c73e 7f43 dcbe 9978 353f
000002e0: ccd9 953c a8a9 27bf f1c3 8fbf 0c3c 4abf
000002f0: f6cd 373f a673 0a3f 5e6a 5cbf ca9c df3e
00000300: cef3 73bf c465 5dbf 8c41 3abf ba03 413f
00000310: ba35 46bf 1684 233f c8f3 80bd a452 b53e
00000320: 8ed9 6abf c33b 353f 2ae1 8dbc 273c 00bf
00000330: 85b9 5bbf 08fb 0dbf c7ba cdbe b08e ff3e
00000340: fcd8 143f c6da f83e 741e 9bbe a44a 0cbe
00000350: c5c9 803e 4aa4 20bf d0bc d8be 45dd 213f
00000360: 9f1a a43d ca89 12bf cd03 2f3e 5981 40be
00000370: 6e56 a93e f339 0dbf 205f 133f 7621 0bbf
00000380: ca7e 1bbe 1756 f9be 53cb 183f 7b3b efbe
00000390: 0d60 b03e 820b 25be c0ea 1dbe b0e2 f5be
000003a0: 3e3a edbe 5a08 e8be d57d 99be 2903 043f
000003b0: ceab 2f3f ac00 a73e 1f20 913d 21e6 f2bd
000003c0: e352 b7bd e4a9 5cbe 9604 0cbe 3612 863e
000003d0: 4ff4 0d3f 8244 1a3e 1e9a da3e beab 8abd
000003e0: 9c18 583e 6e15 06bf c8c2 2dbf 064b 10bf
000003f0: 5177 883e 571d f83d 5b13 903e 5376 f33b

gc11.bias f4 [7]
0.0008998219 -0.00028602337 0.0012649861 -0.00084321015 0.000108469794 0.0020747036 -0.0015476124
00000000: 07e2 6b3a 68f5 95b9 e4cd a53a e00a 5dba
00000010: 477a e338 c0f7 073b 41d9 caba
